…
"colab":{"base_uri":"https://localhost:8080/"},"executionInfo":{"status":"ok","timestamp":1711705574763,"user_tz":-780,"elapsed":522,"user":{"displayName":"Kong Kong","userId":"12174995287770087580"}},"outputId":"390c4874-6cab-480b-8849-b88655540cb9"},"execution_count":null,"outputs":[{"output_type":"stream","name":"stdout","text":["Model: \"sequential\"\n","_________________________________________________________________\n"," Layer (type)                Output Shape              Param #   \n","=================================================================\n"," embedding (Embedding)       (None, 400, 50)           250000    \n","                                                                 \n"," dropout (Dropout)           (None, 400, 50)           0         \n","                                                                 \n"," conv1d (Conv1D)             (None, 398, 250)          37750     \n","                                                                 \n"," global_max_pooling1d (Glob  (None, 250)               0         \n"," alMaxPooling1D)                                                 \n","                                                                 \n"," dense (Dense)               (None, 250)               62750     \n","                                                                 \n"," dropout_1 (Dropout)         (None, 250)               0         \n","                                                                 \n"," activation (Activation)     (None, 250)               0         \n","                                                                 \n"," dense_1 (Dense)             (None, 1)                 251       \n","                                                                 \n","=================================================================\n","Total params: 350751 (1.34 MB)\n","Trainable params: 350751 (1.34 MB)\n","Non-trainable params: 0 (0.00 Byte)\n","_________________________________________________________________\n"]}]},{"cell_type":"markdown","source":["#Lets plot it"],"metadata"
…
